2019-07-03 14:09:46,695 INFO random seed: 0
2019-07-03 14:09:46,696 INFO Compiling model...
2019-07-03 14:09:49,196 INFO ========================================
2019-07-03 14:09:49,196 INFO Sent_Posit_Drmm_Modeler(
  (trigram_conv_1): Conv1d(30, 30, kernel_size=(3,), stride=(1,), padding=(2,))
  (trigram_conv_activation_1): Sigmoid()
  (trigram_conv_2): Conv1d(30, 30, kernel_size=(3,), stride=(1,), padding=(2,))
  (trigram_conv_activation_2): Sigmoid()
  (q_weights_mlp): Linear(in_features=31, out_features=1, bias=True)
  (linear_per_q1): Linear(in_features=3, out_features=8, bias=True)
  (my_relu1): LeakyReLU(negative_slope=0.1)
  (linear_per_q2): Linear(in_features=8, out_features=1, bias=True)
  (sent_out_layer_1): Linear(in_features=11, out_features=8, bias=False)
  (sent_out_activ_1): LeakyReLU(negative_slope=0.1)
  (sent_out_layer_2): Linear(in_features=8, out_features=1, bias=False)
  (final_layer_1): Linear(in_features=12, out_features=8, bias=True)
  (final_activ_1): LeakyReLU(negative_slope=0.1)
  (final_layer_2): Linear(in_features=8, out_features=1, bias=True)
  (oo_layer): Linear(in_features=2, out_features=1, bias=True)
  (margin_loss): MarginRankingLoss()
)
2019-07-03 14:09:49,197 INFO ========================================
2019-07-03 14:09:49,197 INFO ========================================
2019-07-03 14:09:49,197 INFO trainable:5745 untrainable:0 total:5745
2019-07-03 14:09:49,197 INFO ========================================
2019-07-03 14:09:51,369 INFO 001 6.4307 6.4307 0.6562 0.6562 1.9573
…
