2019-07-04 12:20:18,169 INFO random seed: 0
2019-07-04 12:20:18,169 INFO Compiling model...
2019-07-04 12:20:21,615 INFO ========================================
2019-07-04 12:20:21,615 INFO Sent_Posit_Drmm_Modeler(
  (trigram_conv_1): Conv1d(30, 30, kernel_size=(3,), stride=(1,), padding=(2,))
  (trigram_conv_activation_1): Sigmoid()
  (trigram_conv_2): Conv1d(30, 30, kernel_size=(3,), stride=(1,), padding=(2,))
  (trigram_conv_activation_2): Sigmoid()
  (q_weights_mlp): Linear(in_features=31, out_features=1, bias=True)
  (linear_per_q1): Linear(in_features=6, out_features=8, bias=True)
  (my_relu1): LeakyReLU(negative_slope=0.1)
  (linear_per_q2): Linear(in_features=8, out_features=1, bias=True)
  (sent_out_layer_1): Linear(in_features=11, out_features=8, bias=False)
  (sent_out_activ_1): LeakyReLU(negative_slope=0.1)
  (sent_out_layer_2): Linear(in_features=8, out_features=1, bias=False)
  (final_layer_1): Linear(in_features=1, out_features=8, bias=True)
  (final_activ_1): LeakyReLU(negative_slope=0.1)
  (final_layer_2): Linear(in_features=8, out_features=1, bias=True)
  (oo_layer): Linear(in_features=2, out_features=1, bias=True)
  (margin_loss): MarginRankingLoss()
)
2019-07-04 12:20:21,615 INFO ========================================
2019-07-04 12:20:21,615 INFO ========================================
2019-07-04 12:20:21,615 INFO trainable:5681 untrainable:0 total:5681
2019-07-04 12:20:21,615 INFO ========================================
2019-07-04 12:20:27,622 INFO 001 5.1400 5.1400 0.5625 0.5625 5.7897
…
